…
	Index(['category', 'text'], dtype='object')
	No. of unique classes 5
	Total 400000 word vectors in Glove 6B 100d.
	Shape of Data Tensor: (2225, 1000)
	Shape of Label Tensor: (2225, 5)
	Shape of x train (1780, 1000)
	Shape of y train (1780, 5)
	Shape of x val (445, 1000)
	Shape of y val (445, 5)
	Number of Unique Tokens 23385

	Simplified convolutional neural network
	_________________________________________________________________
	Layer (type)                 Output Shape              Param #   
	=================================================================
	input_1 (InputLayer)         (None, 1000)              0         
	_________________________________________________________________
	embedding_1 (Embedding)      (None, 1000, 100)         2338600   
	_________________________________________________________________
	conv1d_1 (Conv1D)            (None, 996, 128)          64128     
	_________________________________________________________________
	max_pooling1d_1 (MaxPooling1 (None, 199, 128)          0         
	_________________________________________________________________
	conv1d_2 (Conv1D)            (None, 195, 128)          82048     
	_________________________________________________________________
	max_pooling1d_2 (MaxPooling1 (None, 39, 128)           0         
	_________________________________________________________________
	conv1d_3 (Conv1D)            (None, 35, 128)           82048     
	_________________________________________________________________
	max_pooling1d_3 (MaxPooling1 (None, 1, 128)            0         
	_________________________________________________________________
	flatten_1 (Flatten)          (None, 128)               0         
	_________________________________________________________________
	dense_1 (Dense)              (None, 128)               16512     
	_________________________________________________________________
	dense_2 (Dense)              (None, 5)                 645       
	=================================================================
	Total params: 2,583,981
	Trainable params: 2,583,981
	Non-trainable params: 0

	Train on 1780 samples, validate on 445 samples

	Epoch 1/15
	1780/1780 [==============================] - 32s 18ms/step - loss: 1.6304 - acc: 0.2135 - val_loss: 1.6036 - val_acc: 0.2584
	Epoch 00001: val_acc improved from -inf to 0.25843

	Epoch 2/15
…
